rknn-toolkit2/examples/functions/onnx_edit/concat_block.onnx (onnx, 1727 bytes, 2 tensors)

conv.weight f4 [32, 1, 1, 1]
000000 70 0e fa 3e 88 84 b6 3e a8 95 71 be 86 75 09 3f
       0.4883914 0.35647988 -0.23592246 0.5369495
000010 b8 aa ba 3e 52 fb 27 bf 9e b4 61 3f 04 7f 0c 3f
       0.36458373 -0.6561786 0.88166225 0.5488131
000020 60 3d 1f be 2e 52 41 3f cc c0 55 bf d0 99 b3 bd
       -0.15550756 0.7551602 -0.8349731 -0.08769572
000030 38 12 87 3e f4 e2 8b 3e e6 19 1e 3f 84 ff 7a bf
       0.26381087 0.2732159 0.6175827 -0.98046136
000040 84 df c7 3e a8 c1 a7 3e 24 be e4 3e 30 9b 70 be
       0.39037716 0.32764935 0.44676316 -0.234967
000050 54 d5 fb be 74 65 ef be 5a 26 05 3f 86 db 6e 3f
       -0.49186194 -0.4675709 0.52011645 0.93303716
000060 a6 9b 7b bf 64 5a 18 3f ae 77 3a 3f f4 f8 f8 be
       -0.98284376 0.59512925 0.72838867 -0.48627436
000070 20 94 73 bd be a5 0f bf 0e e8 77 3f 52 14 6e bf
       -0.059467435 -0.5611228 0.9683846 -0.92999756

conv.bias f4 [32]
000000 a0 46 46 3d 00 1c 51 bc 68 cd 65 3e 78 50 c4 3e
       0.048407197 -0.012763023 0.22441638 0.38342643
000010 b0 8c 30 be fe 4c 04 bf 18 fd d3 be 14 6c 9d 3e
       -0.17241168 -0.5167998 -0.41404033 0.3074652
000020 c8 7e 34 3e 50 2d 8a be 4a 78 70 bf 4c 4b ff be
       0.17626488 -0.26987696 -0.93933547 -0.49862134
000030 10 7c 73 3e a0 89 46 3f e4 c3 d4 3e 6c 7a 1b 3f
       0.23777795 0.7755375 0.41555703 0.60733676
000040 1a a9 54 bf d8 53 c4 be 4a 3a 34 bf 9c 0e 41 bf
       -0.8307053 -0.38345218 -0.7040144 -0.7541292
000050 5c e1 87 3e 0c 47 c2 3e 6e 7f 35 3f b4 a3 60 3f
       0.26539123 0.3794483 0.7089757 0.8774979
000060 72 e3 68 3f 74 85 26 3f e0 05 41 3f 80 4a 6a 3d
       0.90972054 0.65047383 0.7539959 0.057199955
000070 8c 39 7b bf 60 77 24 be 38 c4 2c be ee 62 18 bf
       -0.98134685 -0.16061163 -0.16871727 -0.59525955
