rknn-toolkit2/examples/functions/onnx_edit/concat_block.onnx (onnx, 1727 bytes, 2 tensors)

conv.weight f4 [32, 1, 1, 1]
000000 4a af 5c bf b4 1e 77 bf ae 0e 3b 3f 20 f1 24 3f
       -0.8620497 -0.96531224 0.73069274 0.6443043
000010 80 9d 96 bd e4 c4 6b bf 70 89 5d be a4 72 3c bf
       -0.073542595 -0.92097306 -0.2163446 -0.7361243
000020 80 8c 6c bf 58 5c 51 3f 20 85 d1 3e 02 c0 7d bf
       -0.92401886 0.8178153 0.4092188 -0.99121106
000030 e8 a2 43 be 00 00 f1 3c a8 75 1d 3f bc d7 e5 3e
       -0.19105113 0.029418945 0.61507654 0.44891155
000040 70 41 a4 bd e0 69 97 be 78 b3 dc 3e 60 b6 52 be
       -0.08020294 -0.29572964 0.43105674 -0.20577383
000050 ba 03 5c bf 8c e6 a7 3e c0 7b 55 be 50 36 19 3e
       -0.85943186 0.3279308 -0.20847988 0.14962125
000060 8c 47 fa be 9e 49 51 bf d8 25 b7 3e 24 0c e5 be
       -0.4888271 -0.81752956 0.3577106 -0.44735825
000070 60 e7 00 be 80 56 83 3e da e9 20 bf a4 71 76 3f
       -0.12588263 0.25651932 -0.6285683 0.9626715

conv.bias f4 [32]
000000 b0 b6 ef bd 40 07 ae bc cc 15 91 be f0 eb b6 3d
       -0.11704767 -0.021243691 -0.28336942 0.0893172
000010 00 6f 66 3d 00 da 07 3f a0 48 33 bd 48 94 4c bf
       0.0562582 0.53067017 -0.043770432 -0.7991376
000020 72 8e 05 3f 50 6d 85 be e0 b2 d7 be e0 07 f7 be
       0.5217048 -0.2605996 -0.42128658 -0.48248196
000030 20 bd 5b bd d8 53 02 be dc 29 ac 3e c8 8f e9 be
       -0.05364716 -0.12727296 0.33625686 -0.4561751
000040 a4 63 c3 be 90 3a 5d be e8 53 4a bf 20 69 64 3d
       -0.38161957 -0.21604371 -0.7903428 0.055764318
000050 74 17 52 bf bc 8d ab 3e b0 0b 50 3e a4 ab 31 3f
       -0.82067037 0.33506572 0.20316958 0.6940253
000060 52 2a 58 3f 00 24 da ba b0 5a 0a 3f d6 32 27 bf
       0.84439576 -0.0016642809 0.5404463 -0.65311944
000070 40 fb 8c 3d bc cc 49 3f 88 02 2f 3f 5a 46 16 3f
       0.0688386 0.78828025 0.6836324 0.587011
